…
userId":"04240742078627237530"}},"outputId":"a30711fa-86e5-4766-9b8d-42200756efca"},"source":["conv_base.summary()"],"execution_count":null,"outputs":[{"output_type":"stream","name":"stdout","text":["Model: \"vgg16\"\n","_________________________________________________________________\n"," Layer (type)                Output Shape              Param #   \n","=================================================================\n"," input_1 (InputLayer)        [(None, 180, 180, 3)]     0         \n","                                                                 \n"," block1_conv1 (Conv2D)       (None, 180, 180, 64)      1792      \n","                                                                 \n"," block1_conv2 (Conv2D)       (None, 180, 180, 64)      36928     \n","                                                                 \n"," block1_pool (MaxPooling2D)  (None, 90, 90, 64)        0         \n","                                                                 \n"," block2_conv1 (Conv2D)       (None, 90, 90, 128)       73856     \n","                                                                 \n"," block2_conv2 (Conv2D)       (None, 90, 90, 128)       147584    \n","                                                                 \n"," block2_pool (MaxPooling2D)  (None, 45, 45, 128)       0         \n","                                                                 \n"," block3_conv1 (Conv2D)       (None, 45, 45, 256)       295168    \n","                                                                 \n"," block3_conv2 (Conv2D)       (None, 45, 45, 256)       590080    \n","                                                                 \n"," block3_conv3 (Conv2D)       (None, 45, 45, 256)       590080    \n","                                                                 \n"," block3_pool (MaxPooling2D)  (None, 22, 22, 256)       0         \n","                                                                 \n"," block4_conv1 (Conv2D)       (None, 22, 22, 512)       1180160   \n","                                                                 \n"," block4_conv2 (Conv2D)       (None, 22, 22, 512)       2359808   \n","                                                                 \n"," block4_conv3 (Conv2D)       (None, 22, 22, 512)       2359808   \n","                                                                 \n"," block4_pool (MaxPooling2D)  (None, 11, 11, 512)       0         \n","                                                                 \n"," block5_conv1 (Conv2D)       (None, 11, 11, 512)       2359808   \n","                                                                 \n"," block5_conv2 (Conv2D)       (None, 11, 11, 512)       2359808   \n","                                                                 \n"," block5_conv3 (Conv2D)       (None, 11, 11, 512)       2359808   \n","                                                                 \n"," block5_pool (MaxPooling2D)  (None, 5, 5, 512)         0         \n","                                                                 \n","=================================================================\n","Total params: 14,714,688\n","Trainable params: 14,714,688\n","Non-trainable params: 0\n","_________________________________________________________________\n"]}]},{"cell_type":"markdown","metadata":{"id":"6xOFaEu6IxPD"},"source":["The final featu
…
i","userId":"04240742078627237530"}},"outputId":"b339a04f-4ed2-4c17-9f7b-bb1a1b401508"},"source":["model.summary()"],"execution_count":null,"outputs":[{"output_type":"stream","name":"stdout","text":["Model: \"model\"\n","_________________________________________________________________\n"," Layer (type)                Output Shape              Param #   \n","=================================================================\n"," input_2 (InputLayer)        [(None, 180, 180, 3)]     0         \n","                                                                 \n"," sequential (Sequential)     (None, 180, 180, 3)       0         \n","                                                                 \n"," tf.__operators__.getitem (S  (None, 180, 180, 3)      0         \n"," licingOpLambda)                                                 \n","                                                                 \n"," tf.nn.bias_add (TFOpLambda)  (None, 180, 180, 3)      0         \n","                                                                 \n"," vgg16 (Functional)          (None, 5, 5, 512)         14714688  \n","                                                                 \n"," flatten (Flatten)           (None, 12800)             0         \n","                                                                 \n"," dense (Dense)               (None, 256)               3277056   \n","                                                                 \n"," dropout (Dropout)           (None, 256)               0         \n","                                                                 \n"," dense_1 (Dense)             (None, 1)                 257       \n","                                                                 \n","=================================================================\n","Total params: 17,992,001\n","Trainable params: 3,277,313\n","Non-trainable params: 14,714,688\n","_________________________________________________________________\n"]}]},{"cell_type":"markdown","metadata":{"id":"HryYHOK3kvDn"},"source":["As you ca
…
